…
    "collapsed": false
   },
   "outputs": [],
   "source": [
    "lrate = LearningRateScheduler(decay_drop)\n",
    "callback_list= [lrate]"
   ]
  },
  {
   "cell_type": "code",
   "execution_count": 12,
   "metadata": {
    "collapsed": false
   },
   "outputs": [
    {
     "name": "stdout",
     "output_type": "stream",
     "text": [
      "_________________________________________________________________\n",
      "Layer (type)                 Output Shape              Param #   \n",
      "=================================================================\n",
      "input_1 (InputLayer)         (None, 32, 32, 3)         0         \n",
      "_________________________________________________________________\n",
      "conv2d_1 (Conv2D)            (None, 32, 32, 32)        896       \n",
      "_________________________________________________________________\n",
      "dropout_1 (Dropout)          (None, 32, 32, 32)        0         \n",
      "_________________________________________________________________\n",
      "conv2d_2 (Conv2D)            (None, 32, 32, 32)        9248      \n",
      "_________________________________________________________________\n",
      "max_pooling2d_1 (MaxPooling2 (None, 16, 16, 32)        0         \n",
      "_________________________________________________________________\n",
      "conv2d_3 (Conv2D)            (None, 16, 16, 64)        18496     \n",
      "_________________________________________________________________\n",
      "dropout_2 (Dropout)          (None, 16, 16, 64)        0         \n",
      "_________________________________________________________________\n",
      "conv2d_4 (Conv2D)            (None, 16, 16, 64)        36928     \n",
      "_________________________________________________________________\n",
      "max_pooling2d_2 (MaxPooling2 (None, 8, 8, 64)          0         \n",
      "_________________________________________________________________\n",
      "conv2d_5 (Conv2D)            (None, 8, 8, 128)         73856     \n",
      "_________________________________________________________________\n",
      "dropout_3 (Dropout)          (None, 8, 8, 128)         0         \n",
      "_________________________________________________________________\n",
      "conv2d_6 (Conv2D)            (None, 8, 8, 128)         147584    \n",
      "_________________________________________________________________\n",
      "max_pooling2d_3 (MaxPooling2 (None, 4, 4, 128)         0         \n",
      "_________________________________________________________________\n",
      "flatten (Flatten)            (None, 2048)              0         \n",
      "_________________________________________________________________\n",
      "dense_1 (Dense)              (None, 1024)              2098176   \n",
      "_________________________________________________________________\n",
      "dense_2 (Dense)              (None, 512)               524800    \n",
      "_________________________________________________________________\n",
      "dense_3 (Dense)              (None, 256)               131328    \n",
      "_________________________________________________________________\n",
      "dense_4 (Dense)              (None, 10)                2570      \n",
      "=================================================================\n",
      "Total params: 3,043,882\n",
      "Trainable params: 3,043,882\n",
      "Non-trainable params: 0\n",
      "_________________________________________________________________\n",
      "None\n"
     ]
    }
   ],
   "source": [
    "model = build_model()\n",
    "\n",
    "print(model.summary())"
   ]
  },
…
